model.pth (torch_old, 56384 bytes, 7 tensors)

fc1.weight f4 [99, 33]
00000000: 597c 82be 6706 febc 070c 723d 4945 263d
00000010: 74ea 043e 5c4e dcbb 0315 813e 0e29 6d3d
00000020: 3bfc 7fbd 2492 ddbd 1efb d63d 21b5 0c3c
00000030: e62c 683d 5429 27bd b1eb 5abd b108 df3d
00000040: 02b6 3f3e 5e15 843d 49c8 183e 9e2d 003d
00000050: b3a3 68bb c0d6 7dbd d346 b9bd eb2f babd
00000060: a130 5dbd 42fd 143d 9eec f23d eb3e 553e
00000070: 0525 30be c810 e53d c7ee 4dbe 91b4 14bc
00000080: c5dc 143f 39c8 12be f1ba 783d 0cf1 4ebe
00000090: 012d de3d f87e cabb 6d6a 253e 2783 64be
000000a0: e45d a2bd 0d8b abbc 0813 2bbe e922 233e
000000b0: fbc5 8bbb 1cec bdbd 4f2d bd3d e348 8fbd
000000c0: 68da 003e f698 b53d 590a cbbd 9b75 9cbd
000000d0: dbbe 3b3d 1aa9 b83d 4726 053e c5d9 dbbd
000000e0: c29b ad3d 0c59 10bd 85dc 3a3d c8d7 dc3c
000000f0: aaab 1d3d 7415 893d 296d 793d 419f 723d
00000100: 6b95 73be 8ec2 203e ba35 0e3e 6ab5 32be
00000110: 31d0 84bd 79de c23d 2947 d5bd e86a fb3d
00000120: 5b30 4bbe f088 3bbd ca81 4abe 60ab b33c
00000130: 3644 593e 07a7 e93d 56f1 a8bd fa5e ad3d
00000140: 7313 193e f476 b83c 900d f13d 7c5b 183d
00000150: bad3 473e 4e97 623d ae26 f63d fb34 89bd
00000160: 9b09 20be e89e 23bd ec60 a6bc 3999 813d
00000170: 63e9 0fbe a04c 05be fbe9 903c 2046 ca3d
00000180: 7dd4 efbd a1c4 3cbe 1be7 493f e099 6b3e
00000190: 9269 b03d 9640 ee3d 4b76 9d3c c79a 25be
000001a0: f33b be3c 8be7 4a3e 036d ca3d 31a1 3fbe
000001b0: 3c32 0bbe e636 463b c56c 9c3d a814 8cbd
000001c0: 09e8 1b3b c0c5 e53b 5952 9cbd beb7 b13d
000001d0: 7890 abbd a2bb fdbd 50ff 7a3e 0617 5f3d
000001e0: 5158 1c3e 8399 743d eb3c d4bc 292e 65bd
000001f0: dd9a 883b 052b b7bd 69c3 c3bd 4bd7 41be
00000200: 3b0b 0abd b586 2dbd 0280 48be 7ba9 b3be
00000210: 37cb ad3d 3319 b73e 0528 ed3d 42da cbbd
00000220: 81e3 71be 148f 1d3e d619 5b3c 0638 dc3d
00000230: 2465 843d 05b5 173e 2091 4bbe 3496 7c3c
00000240: 3a6e cabd 43eb 69bd 4f45 f13d 7caa 213d
00000250: 828c ea3d e535 1a3d cdf2 283e 7ae1 6fbe
00000260: 1716 91bd a8da 1ebd 3eca 5a3d 3a38 553d
00000270: b384 1a3d a28c 413d bb6f 5c3d 5cc3 923d
00000280: 0064 b3bd a5d6 7a3c 2e11 42bd b9cb 4e3e
00000290: 5b1a d83d 16ab 36bd f94b dabd 1de9 063e
000002a0: abdd d23d 25ff 033e 4ea8 eabc 8a30 c3bc
000002b0: ebb8 1ebe c91f 9abc fe81 2b3d 85f7 11bd
000002c0: 1337 aebc 6e4a d43d 6a22 453c 1e62 653c
000002d0: ef77 94bd 0fc8 33bd 608d 5bbd 2423 383e
000002e0: 53c4 323d 0118 fabc 6e24 40bd 87c9 01be
000002f0: 7774 283d 188a 783d 0a0a 8e3d 59ba bf3b
00000300: f91e c63d 1f79 403e eb79 c23d 99a0 48bd
00000310: 11b4 f73c 742f 423e 9aff f9bd 0654 9abd
00000320: ae88 90be 0478 913d 0216 12be 3de3 d73d
00000330: 8508 693d 93bf 07bd bb9e bf3d 74f2 14be
00000340: da7e 08bd 64e6 3d3c 3029 a1bd 9558 27bd
00000350: c893 913d 8eb9 763d 18b6 dd3b 9a1f 0a3e
00000360: dff5 473d 29c4 10bd 40fb c63c 61b8 5cbd
00000370: 2404 1dbd 9a09 b4bd e97f 353d cb50 bc3d
00000380: 93c1 2e3c 5a22 bcbc e55a 1fbc bebb 1f3e
00000390: 8682 3abe b138 0bbe 2572 3bbf 1919 3cbd
000003a0: 5338 4f3b 8c75 673a a02d c33d 7e68 fe3c
000003b0: 8886 ff3d a154 0cbe 5263 19be 3d6c bbbc
000003c0: f0e8 4e3d 2fe5 553e 1e31 e4bc 9172 463e
000003d0: 6593 ae3d 70c2 37be 93b5 fbbd 311f a4bd
000003e0: bda8 a0bc 158e 13be 883d b73d 5794 d6bd
000003f0: 3e1b 88bd 6d0f 62bc 86e0 c8bc f27b de3c
-0.25485495 -0.031008912 0.0590935 0.04059342 0.12980062 -0.0067232084 0.25211343 0.05790048
-0.062496405 -0.1081889 0.104971156 0.008588106 0.056683443 -0.040810898 -0.05344743 0.1089033
0.18721774 0.06449388 0.14920153 0.031293504 -0.0035497963 -0.06197238 -0.09046712 -0.09091171
-0.054001454 0.036374338 0.118615374 0.20824783 -0.17201622 0.111848414 -0.20110618 -0.0090762535
0.5814937 -0.14334191 0.060725156 -0.2020914 0.108484276 -0.0061796866 0.1615388 -0.22315656
-0.079280645 -0.020940328 -0.16706479 0.15931286 -0.0042655445 -0.0927355 0.092371576 -0.06996324
0.12583315 0.088670656 -0.09914083 -0.07639619 0.04583631 0.090166286 0.13002883 -0.107348956
0.08476974 -0.03524117 0.04562046 0.026958361 0.03849379 0.06693545 0.06089512 0.059233908
-0.23787467 0.15699217 0.13887683 -0.17452016 -0.06485022 0.095150895 -0.10413963 0.1227625
-0.19842665 -0.04578489 -0.19776073 0.021932304 0.21217427 0.11408811 -0.08249156 0.08465381
0.14948826 0.022517659 0.11770165 0.03719662 0.19514361 0.055320077 0.12019096 -0.06699558
-0.15628664 -0.039946467 -0.020309888 0.06328053 -0.14053874 -0.13017511 0.017689696 0.098766565
-0.11710451 -0.18434383 0.78868264 0.23007917 0.08613886 0.116334125 0.019221446 -0.16172324
0.023221945 0.19814889 0.098840736 -0.18713833 -0.13593382 0.0030245124 0.07637934 -0.06839877
0.0023789427 0.007012099 -0.07632894 0.08677624 -0.083771646 -0.12389304 0.24511456 0.054465316
0.15268065 0.059716713 -0.025907954 -0.055952225 0.0041688518 -0.08943752 -0.09558756 -0.18929784
-0.033702116 -0.042364795 -0.19580081 -0.3509024 0.08486026 0.35761413 0.11579899 -0.09953739
-0.23621942 0.15386611 0.013372859 0.10752873 0.064646035 0.14815147 -0.1987958 0.015416671
-0.09884305 -0.05710913 0.11780798 0.039469227 0.11452581 0.037649054 0.16498871 -0.23425856
-0.070842914 -0.038782746 0.05341553 0.052055575 0.037724208 0.04725326 0.053817492 0.07166168
-0.08759308 0.015309964 -0.047379665 0.20194902 0.10551902 -0.044596754 -0.10659022 0.13174863
0.10296186 0.12890299 -0.028644707 -0.023826856 -0.15500228 -0.018813984 0.041872017 -0.035636444
-0.021266496 0.10365759 0.012032131 0.014000444 -0.07249438 -0.043891963 -0.053601623 0.17982155
0.04364426 -0.030529024 -0.046909742 -0.12674533 0.041126695 0.06067857 0.069355085 0.005851072
0.09673876 0.18796204 0.0949591 -0.048981283 0.03023723 0.18963414 -0.12206955 -0.075355574
-0.28229278 0.07102969 -0.14266208 0.10541389 0.05689289 -0.033141684 0.09356447 -0.14545614
-0.0333241 0.011590574 -0.07869184 -0.040855963 0.07108265 0.060235552 0.006766092 0.13488618
0.048818465 -0.035343323 0.024289727 -0.053886775 -0.038334027 -0.08790894 0.044311438 0.091950975
0.010666269 -0.022965599 -0.009726261 0.15598962 -0.18213853 -0.13595845 -0.73221046 -0.045922372
0.0031619265 0.00088294665 0.09530187 0.031055685 0.12476832 -0.13704158 -0.14979294 -0.02287876
0.050515115 0.20888208 -0.027855452 0.19379641 0.08524207 -0.17945266 -0.12290492 -0.08013762
-0.01961171 -0.14409669 0.08947283 -0.10477512 -0.06645821 -0.013797623 -0.024521124 0.027158711

fc1.bias f4 [99]
00000000: b358 a4be e162 02be d5f2 0840 5b56 36bf
00000010: e92d 88bf b4c9 513f d78c 053f b895 96bf
00000020: 882f c03f 7d61 41be d9f9 813f a667 153f
00000030: f7b9 5c3e 789d bcbf 82ab a4bf 97d2 f8bf
00000040: bc0c f13d 43fb 9fbf 5845 943f 44c4 0540
00000050: 411d 1c3f 1727 7c3e f9a3 28bf 05ef d2bf
00000060: 4562 29bd 2612 66bf 2ebc c1bf 650e 6fbf
00000070: fd8a 51bf e2f0 503f 0980 243e 29f1 773f
00000080: c06f c63e 545c 9b3e c589 3cbe c42d c6bf
00000090: 03cd 933e 509d a0bd b17d 4cbf 5c90 3dbf
000000a0: 496a e2be 3b81 633f 631b 1c3f cf66 853e
000000b0: ddde d3be 36f9 0b40 b061 2fbf 2075 113f
000000c0: f51d 58bf eb8f 11be da73 943f 3597 9ebe
000000d0: 9a71 8abd b2b6 09bc fe7f adbf c2e5 36bf
000000e0: 969d 983f e6d9 bebd 706e 4fbf 0efb 19c0
000000f0: 58fe f3be 626d 603f d937 003f b24a 01c0
00000100: ecaf a43f 0460 8ebf f273 a0be fef9 8fbf
00000110: 084a 65be 8fe7 f03e 6796 503e 979e 193f
00000120: 5615 e33f 0311 9c3f 4e3a 223c 3602 bc3e
00000130: cd60 aebf 315e 3e3f d392 ad3e 08ef c13f
00000140: ee83 85bd 3b44 073f 8189 653e efe6 b2bf
00000150: 1b9e 52be 3efa 23bf 30b7 0ebe a5f1 3c3d
00000160: 7f9e 0c3f c22d 73bf e8da 023f 7cdf 883f
00000170: 9b33 d93e 84c0 c03e d08a 1b3d 64b2 b3be
00000180: 0302 3b40 1926 a6be 2886 683e
-0.32098922 -0.12733032 2.1398213 -0.7122552 -1.0639011 0.819484 0.5216803 -1.176444
1.5014505 -0.18884845 1.0154372 0.5836128 0.21555315 -1.4735556 -1.286484 -1.9439267
0.11770007 -1.2498554 1.1583662 2.090104 0.6098214 0.24624287 -0.658752 -1.6479193
-0.041353483 -0.8987144 -1.5135553 -0.9338134 -0.81852704 0.8161756 0.16064467 0.96852356
0.38757133 0.30343878 -0.1841193 -1.5482717 0.2886735 -0.07842505 -0.7987929 -0.740484
-0.44221714 0.88869065 0.6097929 0.26055 -0.4138097 2.1870856 -0.68508434 0.56819344
-0.8442071 -0.14215057 1.1597855 -0.30974737 -0.06759949 -0.008405374 -1.3554685 -0.7144433
1.1923091 -0.093189046 -0.8102789 -2.4059482 -0.47654986 0.87666905 0.50085217 -2.020184
1.2866187 -1.1123052 -0.3133846 -1.1248167 -0.22391522 0.47051665 0.20369874 0.60007614
1.7740886 1.2192692 0.009901596 0.36720437 -1.3623291 0.74362475 0.3390108 1.5151072
-0.06519304 0.52838486 0.22415735 -1.3976725 -0.20568125 -0.64053714 -0.13937068 0.046128888
0.54929346 -0.94991696 0.51115274 1.0693202 0.42422184 0.37646878 0.03797418 -0.3509704
2.9219978 -0.3245094 0.22707427

fc2.weight f4 [99, 99]
00000000: ca2b 98bd aa8b 32bd efc6 1dbd ccf5 043e
00000010: 0df9 543c 0420 4bbe 4fe0 2fba c6eb c9bc
00000020: e16c d9bd db02 0fbe 70ac 11bc 7a7a 6dbd
00000030: 145b 23bd b8aa afbc b4d3 a73d 69d6 8d3c
00000040: a638 f3bd bc7a 10be 7728 b5bd 8af0 83bd
00000050: 74a2 6c3d 62d7 0abe 03be 9abd 5dcd 43bc
00000060: b91e 08be 0d60 69be 59ee f03c d840 d1bc
00000070: 5bfd 1bbd 028c 3abe c491 61bd 8195 ca3d
00000080: bad4 013e c27f 913d 6640 48be 2281 513d
00000090: ce30 61bd c9c7 3dbd 6ede 0d3d 3892 253d
000000a0: 0e1c 8b3d 208f 80bd 6859 593d d4b1 623e
000000b0: 7772 44be 7891 ba3d 94d5 58bd 23c2 233e
000000c0: 81b9 363c c5e6 1e3e b23f 87bd cb7b 07be
000000d0: 9d5a 4dbe 98f6 2c3e 5076 6b3c dd4a 51be
000000e0: a202 80bd 4ee8 b9bc 5672 85bd 067d 83be
000000f0: 1ca3 5cbd fd0f 713c bac4 71bd 1ffb 2cbd
00000100: d176 25be 7c93 4bbd 57d8 50bd e0f8 0ebd
00000110: a4bc 20bd 5cab aa3d 827c a1bb 20ab 583d
00000120: 7a1c 92bd 1467 143d 700f 66be dd5d 223d
00000130: a8dd bcbd d26c 2cbe 00c1 25be 6365 063e
00000140: 1349 853d bd4c 323e 8474 6e3d 6a95 3cbd
00000150: 5452 0cbe e470 5fbd 02b0 88ba 2fa7 2cbe
00000160: 9110 f03c 9a69 8abe df6b 87bd 5afe 71bd
00000170: 2be6 5a3e 945b d23d 762a 90be 2f28 11bc
00000180: 1d1a 27be 2570 3fbc 03a9 c23d c627 8ebd
00000190: e29d c43d 4512 12be 89b0 a1bd ce52 ddba
000001a0: dd4c 273c e4ca b33a cec1 8c3d dec9 15b8
000001b0: 854f 19bd 6782 fdbd 8b82 b9bd 41ed db3d
000001c0: 683d 133e 0a0b 68bc 06ae 573d 253e 323d
000001d0: 76d3 b13a df67 293e 3d6c 5a3d 2b47 5bbc
000001e0: 4221 45bd 671b 4fbc 2edc 6a3d d4e6 183e
000001f0: 3cb1 a33d f24d 17be 1d2c cd3c 33ef fc3d
00000200: df32 373e bd9b dd3d d660 c5bd 868f 0f3c
00000210: 9244 923d 1530 54bc ce84 773d 50ca 07be
00000220: 6bd8 173e f6ff 80bd 7fd6 8a3d 3bcb 123e
00000230: 8f81 debd eb1a 1a3c 0c42 be3d 67bf 4dbe
00000240: 09e1 cebd 438a b6bd 8e1e f93c c69d f53d
00000250: 5d32 03be 9da5 6dbd 656b 253e 7e96 8abd
00000260: 57a6 fcbd f6d5 493e dd3f fbbd 6a3b d3bd
00000270: b19a babd 9ad9 473e 8b26 3ebc dd8d 9cbd
00000280: d95b 23bd 90d9 063e 72c9 0c3d 798b 02bd
00000290: 3c16 c9bd 95b3 173e 12ea b73d 21d7 20be
000002a0: 8987 f7bd e703 1d3e cca2 013e cd37 bcbd
000002b0: e3d4 8e3c 9c79 5e3e fbc5 c13b f275 073e
000002c0: 47fc 343d 726c 43be a043 62bd 234f 6cbc
000002d0: 00a7 7b3d 7938 35bd 382b d83d ff04 0d3e
000002e0: 0ce0 babd 3f25 aebc 02ba 9abd ab4b 823d
000002f0: 546b a73d 0b30 72bd eb81 843d 3bc0 aebd
00000300: d746 1abd 4565 633d a0df a03d 6a64 bc3c
00000310: b97f 2cbc d4f7 ee3d 09b9 1a3e c7e0 00bd
00000320: 9ba1 b5bc 5ba5 41bb 2d1b 0c3d 1fc0 ad3d
00000330: 6429 18bd 5fdf 053d 8f8b 8cbd dbdc b73d
00000340: 6744 90bd 9cad acbd ddc1 193d da5f e5bc
00000350: 0348 89bd 69c3 96bd 36f5 b4bc 7abd ae3d
00000360: 551a b3bd 47d8 2a3d 0c2d 1e3e 8927 263d
00000370: 1ee3 41bd 3925 66bd e9c0 0cbd b6c2 b5bc
00000380: 14ac c03d e2ad bfba a83f a2bd 3203 963d
00000390: b220 ff3d 4267 4ebe 677f 18bd 694b d4bb
000003a0: 5530 46bd 3140 273d 1b75 803d b71b bdbc
000003b0: 44e5 533d 72cd 3abd f2b3 2ebe 2c9f 66be
000003c0: fd3f 69bc 2ec7 8bbe 7bb2 61be a34c 84bd
000003d0: ded1 20bd e1fa 9cbd 681e f5bb ada1 783d
000003e0: 0acf fa3d b504 2cbd c227 a0bd 2f2d 00be
000003f0: d6e9 38be 6476 96bd 5432 b1bc 8c22 a0bc
-0.07430227 -0.043590225 -0.038519796 0.12984389 0.012998831 -0.19836432 -0.0006709145 -0.024648558
-0.1061647 -0.13965933 -0.00889121 -0.05797813 -0.03988178 -0.02144371 0.08194676 0.017314153
-0.11876039 -0.1410932 -0.08845609 -0.064423636 0.057772115 -0.13558725 -0.07555773 -0.011950818
-0.1329297 -0.22790547 0.029410528 -0.025543615 -0.038083415 -0.18217471 -0.055070654 0.09891797
0.12678805 0.07104446 -0.19555816 0.05114854 -0.054978184 -0.046333108 0.034635954 0.04042265
0.067924604 -0.06277299 0.05306378 0.22138149 -0.1918429 0.09109777 -0.05293806 0.15992026
0.011152626 0.15517719 -0.06603946 -0.13230817 -0.20054097 0.16890943 0.01437147 -0.20438714
-0.06250502 -0.02269378 -0.065159485 -0.25681323 -0.05386649 0.014713285 -0.059025504 -0.042231675
-0.16158606 -0.0497012 -0.050987568 -0.034905314 -0.0392424 0.083334655 -0.0049281726 0.052897573
-0.07134338 0.036231115 -0.22466826 0.039640296 -0.09221965 -0.16838387 -0.16186905 0.13124613
0.065080784 0.17412086 0.058216587 -0.04604093 -0.1370328 -0.05455102 -0.0010428431 -0.1686065
0.029304774 -0.27033693 -0.06612372 -0.05908046 0.21376865 0.102713734 -0.28157395 -0.008859678
-0.16318555 -0.011684452 0.09504893 -0.0694118 0.09600426 -0.14264782 -0.078949995 -0.001688564
0.010211197 0.0013717082 0.06872903 -3.571237e-05 -0.03742935 -0.12378388 -0.09058102 0.10738612
0.14378893 -0.014162788 0.052656196 0.043516297 0.0013567049 0.1654353 0.05332588 -0.013383667
-0.04812742 -0.012640811 0.057338886 0.14931804 0.07992789 -0.14775828 0.025045449 0.12350311
0.178905 0.1082072 -0.096376106 0.008762246 0.07141985 -0.012950917 0.060429387 -0.1326077
0.1482865 -0.06298821 0.06779193 0.14335339 -0.10864555 0.009405832 0.09289941 -0.20092545
-0.10101516 -0.0891309 0.030410077 0.119929835 -0.12812181 -0.05801927 0.16154249 -0.06766985
-0.12336414 0.19710526 -0.1226804 -0.10314067 -0.09111536 0.19516602 -0.011605869 -0.07644246
-0.039882515 0.13168931 0.0343718 -0.031871293 -0.09818694 0.14814599 0.08980192 -0.15707065
-0.12086398 0.1533352 0.12659758 -0.09190331 0.017435497 0.21726078 0.0059134937 0.13228586
0.044185903 -0.19084337 -0.055240273 -0.014423165 0.06143856 -0.04424331 0.10555118 0.13771437
-0.09124765 -0.021257995 -0.075550094 0.06362089 0.08174768 -0.05912785 0.064700924 -0.08532759
-0.037665214 0.0555165 0.07855153 0.0229971 -0.010528498 0.11668363 0.15109648 -0.031464364
-0.022171786 -0.0029548022 0.034205604 0.0848391 -0.03714885 0.032683726 -0.06862556 0.08977672
-0.07044297 -0.08431551 0.037538398 -0.027999807 -0.06703188 -0.0736149 -0.022089582 0.085322335
-0.08745257 0.041710164 0.15446872 0.040565047 -0.047335736 -0.056187842 -0.03436366 -0.022187572
0.09407821 -0.0014623965 -0.07922298 0.07324828 0.12457408 -0.20156577 -0.037230875 -0.006478716
-0.048385937 0.040832702 0.06272336 -0.023084505 0.051732317 -0.045606084 -0.17060831 -0.22521657
-0.014236447 -0.273004 -0.22040741 -0.0645993 -0.039262645 -0.07665039 -0.0074804313 0.06070106
0.12246521 -0.041996676 -0.07820083 -0.12517236 -0.18057951 -0.073468 -0.021630444 -0.019547723

fc2.bias f4 [99]
00000000: 708c 87be 14c8 0d3f 66a3 85bf c65c 57bf
00000010: 6485 27bf b8e0 8dbe 1dd6 0e3d c6d5 b23f
00000020: f9c5 aebd 4f4d 893f c156 92bf 09c0 2abe
00000030: b33c adbd 6208 92bd f98b 5abf d32f 433e
00000040: 5cff a4bf 5184 75bf 8658 a7be 0524 9f3f
00000050: 6e3a 8d3f c146 a23f 5411 0f3f 1d61 0b40
00000060: ae9d 723f 9406 8fbf e4ba e93f 06c7 afbe
00000070: 5803 30be b3f4 6e3f 4ced e8be 1b31 2e3f
00000080: bf97 e0bd eed2 313f ff18 1d40 b0b2 183f
00000090: 2ca3 9a3e 4eeb f2be 4dff 06bf 9f1b d3bf
000000a0: 079a 9a3d 15c8 973f 5e5a b9be a047 d6bf
000000b0: 320f 9a3f 5153 36bf 077d ccbe 55d5 1cbe
000000c0: 0155 0240 0979 143f 23c9 62bf f7da 403f
000000d0: 622f 7dbe 2f46 513f 99e5 833f b82c 103f
000000e0: eee9 6fbe bf72 9c3e d8fe 993f 2c34 8ebd
000000f0: 3581 36bf 8c5f a73f e512 0fbf 831f 943f
00000100: 85a2 f4bf 75a9 c73e 6cea 183f df21 0abf
00000110: 8dd8 acbf 1804 413f 280e 2cbf 51f7 c83e
00000120: 3267 8abe 88e2 e13c 3965 f2be ed18 cc3e
00000130: 62d7 d13e 5fba 0c40 43da 933e 4270 82bf
00000140: a278 563f ddae 843f dbeb 253e 6f16 3f3f
00000150: 638c 013f c60c 00bf b67e 44be 080b 063e
00000160: 600c 713f 47e3 d23f b748 31be b33b efbf
00000170: 46c9 d23e ec8a d5bf 8bde a93f 4710 cbbf
00000180: 530e 553f dbb8 f2bf 5cc0 5d3f
-0.26474333 0.5538342 -1.044049 -0.84125936 -0.6543791 -0.2771051 0.034872163 1.3971488
-0.08533854 1.0726718 -1.1432725 -0.16674818 -0.08458843 -0.07130505 -0.8536983 0.19061212
-1.289043 -0.95905024 -0.32684726 1.2432867 1.1033456 1.2677842 0.55885816 2.1778023
0.9477185 -1.1173882 1.826016 -0.3433153 -0.17188776 0.9334213 -0.45493543 0.6804368
-0.10966443 0.6946248 2.4546506 0.59647655 0.30202615 -0.47445148 -0.5273331 -1.6492804
0.0754891 1.1857935 -0.36201757 -1.6740608 1.2035887 -0.7122088 -0.39939138 -0.15315755
2.0364382 0.57997185 -0.8858816 0.75334114 -0.24725106 0.81747717 1.0304443 0.56318235
-0.23429081 0.30556294 1.2030897 -0.06943545 -0.71290904 1.3076034 -0.55888206 1.1572117
-1.9112097 0.38996473 0.597327 -0.53957933 -1.3503586 0.7539687 -0.672091 0.39251187
-0.27031857 0.027573839 -0.47342852 0.39862767 0.40984637 2.1988752 0.28877458 -1.0190508
0.8377782 1.0365864 0.16203253 0.74643606 0.5060484 -0.5001949 -0.19188961 0.13090146
0.9415951 1.647561 -0.17312895 -1.8690094 0.41169184 -1.668302 1.327104 -1.5864342
0.8322498 -1.8962663 0.8662164

actor.weight f4 [4, 99]
00000000: 1365 dc3d 9f66 d0be 8a45 84be c22a f7bc
00000010: a99d c3be d9c0 dfba 187c 0bbe 8d15 81be
00000020: ffe9 14be 7bf7 36be 68c1 17bd 1aca b7bd
00000030: 1ab2 873d fadf cfbc 1077 1bbe 083b 97be
00000040: 29d4 833d a491 2b3d e3d2 01be c908 38be
00000050: e734 1abe 198d 41bd f7a1 d5bb a1eb 9fbd
00000060: c7bb a4be 4f90 f3bc aacc afbd 06ee 453e
00000070: e157 7d3c 907f c53e 73e0 49be 40d4 8abd
00000080: 5b92 1dbd f5bc 45be 664f ad3d 9dfb 81be
00000090: ecda bfbd 496c 33bd 8273 5cbe 09be 9a3d
000000a0: fe15 2b3e e776 a03d 3ef0 29ba bf09 2c3e
000000b0: 123e 063e 63b8 1c3e 7c2b e73b 54c7 acbe
000000c0: 7648 183e 7265 4a3d b3d6 50be 285c e73c
000000d0: 6141 ccbc 8af4 d83d bcdf 10be 2a7a 453e
000000e0: c158 9abc fe78 2bbc 5239 253e 6fb2 a73d
000000f0: fad6 8dbd 82d7 babc 9b84 213e ee3a 123a
00000100: db1e 073e 4650 efbd f34f 82be d83c 333e
00000110: 2111 4bbe c4e3 82be 934c d03d a92e d03e
00000120: a4f9 f5ba 1c8a bc3e 38f8 36bd 618e 883e
00000130: cf9f 423e 0bbf 49be 48cb 053d 6d5d c83d
00000140: 35fd c03e 8b8c ae3b 9e1e 923d 1987 9bbe
00000150: 7127 983d bdbd 0ebd 15d0 1e3d a4f2 823e
00000160: 9171 813e b79f 15bd 6cde 60be 74b4 0cbd
00000170: fc8e a53d 1c58 bd3d 3d6f 16bd c2a4 3abe
00000180: e5ad d8bd e276 c63d 8f90 233e 8406 b23d
00000190: 4e77 7fbd a9b6 68be 8224 9bbd 5d62 653d
000001a0: 88ce 613c b6db 07be 9554 b7be d0b2 c13e
000001b0: d244 98bc 8a22 353e cf93 623d 6666 a7be
000001c0: e1d1 0f3e 6759 e43d 5dc6 cd3d b3c6 57be
000001d0: 4f2b b7bd 1503 673d 1611 0c3d ef72 38bd
000001e0: bfc2 4fbe fe7e 2ebe e19d 2abd e659 25be
000001f0: 3c37 08be 911f d23d c906 f8bb d498 babd
00000200: 44a5 3cbe 5120 11be c28c 8d3e 4021 2b3e
00000210: 9643 43be 20f1 b33d 6960 18bd b06b 853d
00000220: b61f afbd 619c a63d f056 783d 587b f4bd
00000230: c693 6b3e c5d5 30be 0c39 513e 1223 df3b
00000240: c278 643b eb89 38be e0b2 97bd 8b91 523e
00000250: 35bf a33d 8970 fcbd 82bb cbbd 59d5 6cbb
00000260: 17da c0bd b44b 94bc 100e 35be 44b2 a43d
00000270: c773 33be 4f00 23be 8089 75bd dd03 dd3d
00000280: 7b4a 5abd 1ca1 30bd c2c3 2c3e 7d68 70bd
00000290: ae5c b4bc a858 963d 1ca8 09be 382a 613e
000002a0: c3e7 ff3d 4822 94bc b307 62be 02c8 f3bd
000002b0: 4080 2a3d 54d3 9dbe 2752 47be be96 3b3b
000002c0: 9775 12bd fa28 4b3c 3af5 d9bd e9ff 71ba
000002d0: 3472 0fbe ff8f 2ebd dc31 83be 0ea1 843e
000002e0: 7eb4 7c3d d3ef f03d 9d1f 583e 7961 813d
000002f0: e923 9c3e 9c74 3f3e eb5a 43be f7a6 c0bd
00000300: 3335 26be ae62 a23e b171 be3c d995 9ebe
00000310: 3319 f53c ba53 a6bc df7a 343c 2a5a 5fbd
00000320: 1774 dabd 28c1 0d3e 2162 f1bd 93d2 463e
00000330: 11a2 a9bd 4685 973e fe21 3c3e a07b 693d
00000340: a00e 843d 312b 79be db29 283c b0af 3cbe
00000350: f06e 213e 0c3c 35bc 4cf4 a1bc c9fa 0d3e
00000360: 423f 4f3e 41d8 0e3e fff7 d0bd 2aad 0fbe
00000370: 8bc5 a03d ab16 013e 9990 663d 7ef3 b1bd
00000380: 381d 21be 100d a33d 549c ff3d 64ac 26be
00000390: 1fbe 183d 1808 103c 0019 8b3e d95f 333e
000003a0: 7c31 513e b05c 783e a577 ad3c 13fb dfbd
000003b0: 5361 4fbd 6575 56bb ed30 813e 1417 9fbc
000003c0: 3a9d cebd faad 75bd a148 043c c469 eabd
000003d0: 3ee3 2cbd cc5f ccbd ef18 f2bd 994a bc3e
000003e0: 09e9 c0bd ef6d 973e 3c32 30bd c722 313d
000003f0: dc78 f73e bf48 1abe 46c9 8f3b 9d1e c33e
0.10761466 -0.40703294 -0.25834304 -0.030171756 -0.38206223 -0.0017071023 -0.13621557 -0.25211754
-0.14542387 -0.17867844 -0.03704968 -0.08974095 0.06625767 -0.025375355 -0.15182137 -0.29537225
0.06436951 0.04188694 -0.12678103 -0.17972101 -0.15059243 -0.0472537 -0.006519552 -0.078086145
-0.32174513 -0.029731898 -0.085839584 0.1932908 0.0154628465 0.38573885 -0.19714527 -0.06778765
-0.038469654 -0.19310363 0.0846241 -0.25387278 -0.09367928 -0.04380444 -0.21528438 0.075557776
0.16707608 0.07835179 -0.0006482637 0.16800593 0.13109615 0.15304713 0.0070547443 -0.33745825
0.14871392 0.049413152 -0.20394401 0.028242186 -0.024933519 0.10593517 -0.14147848 0.19284883
-0.01884115 -0.0104658585 0.16135147 0.081883304 -0.06925769 -0.02280784 0.15773241 0.0005578239
0.13195364 -0.11685233 -0.2545162 0.17503679 -0.19830753 -0.25564396 0.101708554 0.406606
-0.0018766415 0.3682412 -0.044670314 0.26671126 0.19006275 -0.19701783 0.032664567 0.097834446
0.37693182 0.0053268126 0.07134746 -0.3037651 0.07429398 -0.034848917 0.03877266 0.25575745
0.25281957 -0.03652927 -0.21959847 -0.03435178 0.08083913 0.09245321 -0.03672718 -0.18226913
-0.10580043 0.09690644 0.15973113 0.08692649 -0.062369637 -0.2272593 -0.07575323 0.05600201
0.013782151 -0.13267407 -0.35806718 0.37831736 -0.018587504 0.17688957 0.055316743 -0.3269531
0.14044906 0.11149865 0.100476004 -0.21071891 -0.08943807 0.056399424 0.034195982 -0.045031484
-0.20289133 -0.17040631 -0.04165447 -0.16147575 -0.1330232 0.10259927 -0.007569168 -0.09111181
-0.18422419 -0.14172484 0.27646452 0.16711903 -0.1906875 0.08786225 -0.03720132 0.065146804
-0.0855097 0.08135296 0.060629785 -0.119375885 0.2300559 -0.17269047 0.20431918 0.0068096006
0.0034862016 -0.18021362 -0.074071646 0.20563333 0.07995454 -0.12326152 -0.09947874 -0.0036137907
-0.09416597 -0.018102504 -0.17681146 0.08041814 -0.17524634 -0.15918086 -0.059945583 0.107917525
-0.053293686 -0.043122396 0.1687155 -0.058693398 -0.02201685 0.073411286 -0.13443035 0.21988761
0.12495377 -0.018082753 -0.2207325 -0.11903383 0.041626215 -0.30825293 -0.19464932 0.0028623785
-0.035756674 0.012399906 -0.106424764 -0.0009231554 -0.14008409 -0.042617794 -0.25623977 0.25904125
0.06169557 0.11764493 0.2110581 0.063174196 0.30496147 0.18696827 -0.19077651 -0.09406846
-0.16231231 0.31715912 0.023247572 -0.309737 0.029919242 -0.020303596 0.011015623 -0.054529347
-0.10666674 0.13843215 -0.11786295 0.19416265 -0.08282865 0.29593867 0.18372342 0.057002664
0.06448102 -0.24332882 0.010263885 -0.18426394 0.15764976 -0.01106168 -0.01976981 0.13865198
0.20238975 0.13949682 -0.102035515 -0.140309 0.07850178 0.12606303 0.056290243 -0.086890206
-0.15733802 0.07961476 0.12480989 -0.162767 0.03729069 0.008790992 0.2716751 0.17517032
0.20429033 0.24254107 0.021175215 -0.109365605 -0.050629925 -0.0032723781 0.2523264 -0.019420184
-0.10088582 -0.05998037 0.008073957 -0.114459544 -0.042208903 -0.09979209 -0.11821162 0.36775663
-0.09419448 0.2957606 -0.043016657 0.043246057 0.48334396 -0.15066813 0.0043880073 0.38109294

actor.bias f4 [4]
00000000: 6cc3 d63d 3343 213e 829c b8bf 7837 5e3f
0.104864925 0.1574829 -1.4422762 0.8680339

critic.weight f4 [1, 99]
00000000: 621f 213e d9c4 7cbd b06f 0bbd 1a13 ca3d
00000010: cc63 14ba 0db8 393d db0f a33d ac5e 583d
00000020: 3bdc 67bc 89d9 773e bf9e 183d d531 483c
00000030: a095 d13c 6461 06be ebf1 6fbe d5b4 4d3e
00000040: 5da0 63bc fd7b 08bd 326d d8bc 5294 19bc
00000050: 728a 173d 8dd0 003e b837 853e 01c6 623d
00000060: ba59 04bc 49cb 94bd f3ba 203d 5f00 03bd
00000070: 7e42 a9bd fada 833d 6fe6 fb3c 303a 0e3e
00000080: 83a3 8c3d 1bd2 0a3e 4c46 ed3c a68c 9d39
00000090: 1bea 733b 32a5 c4bd f584 3bbc 59dd a53d
000000a0: d887 a4bc 11c5 9c3d e5b0 02bb 26d3 5bbe
000000b0: e4fe 3c3d 0b02 38bd 1745 e0bc fea3 ebbc
000000c0: b083 ba3c 38a6 893c 2af5 1ebd ac94 463c
000000d0: a6d6 8dbb ccba b43c b6e6 193e 34e7 b23d
000000e0: 03da 083d e576 fdbb 8e4a 5d3d e38e 3e3e
000000f0: 9346 07be cf90 243e 408d 18bb c856 d13d
00000100: 8042 7fbd c377 4fbe a533 debb 9512 9b3d
00000110: 18d6 cbbd 9ca8 fa3c 91fe c63d 9124 2cbc
00000120: 546f 02be 6cc5 953d cb6d e5bb 4e05 f0bd
00000130: 75e9 653d 47fc 123e 3219 e2bc bef5 193e
00000140: f98a 8f3c ab8a d63c aec7 12bd bb20 363d
00000150: f414 83ba ed25 773b 8295 0abe 37ce 7c3b
00000160: 5424 2cbd cad4 743d f73b 093b 29cb 523e
00000170: 41e6 4e3c 314c 2abe 3810 333d 7776 eebb
00000180: 0651 1dbd abb1 cb3c da2b 083d
0.15734628 -0.061711166 -0.03404206 0.098669246 -0.0005660623 0.04534154 0.079620086 0.05282466
-0.014151628 0.24204077 0.037260767 0.012218912 0.025584042 -0.13123089 -0.23432128 0.20088513
-0.013893214 -0.03332137 -0.026419256 -0.009373741 0.036997266 0.12579556 0.26019073 0.055364612
-0.008078033 -0.07265336 0.03924079 -0.031982776 -0.082646355 0.06438251 0.030749528 0.13889384
0.06867125 0.13556711 0.028964184 0.00030050165 0.0037218395 -0.09601821 -0.011445274 0.08098859
-0.020084307 0.07654775 -0.0019941863 -0.21467265 0.04614152 -0.044923823 -0.027376695 -0.028764721
0.022767872 0.016802892 -0.038808025 0.012120407 -0.0043285666 0.022061728 0.15029415 0.08735505
0.033411037 -0.0077351206 0.05402618 0.18609194 -0.13210516 0.16070865 -0.002327755 0.1022163
-0.06231928 -0.20260529 -0.006781059 0.075719036 -0.099529445 0.030597977 0.097165234 -0.010506765
-0.12737781 0.07313046 -0.0070016137 -0.11719762 0.056130845 0.14354049 -0.027599905 0.1503515
0.017522322 0.026189169 -0.03583496 0.044464808 -0.0010000751 0.0037711815 -0.13533595 0.0038575062
-0.042026833 0.059773244 0.0020940283 0.20585312 0.012628139 -0.16630627 0.04371664 -0.0072773057
-0.038407348 0.024864992 0.033244945
